model/multi_output_nn.pth (torch, 54808 bytes, 6 tensors)

fc1.weight f4 [128, 20]
000000 7b 28 1c 3e 17 b5 8d bf fc 66 9c 3e f3 97 c5 bc
       0.15249817 -1.1070889 0.3054732 -0.024120307
000010 59 73 5d 3f 5b bc 05 be 83 e6 62 be aa 73 53 be
       0.8650413 -0.13060133 -0.22158246 -0.20649591
000020 1a 93 84 3d aa 16 b9 be f6 6c 94 bc 12 10 8c bd
       0.0647337 -0.36150104 -0.018118363 -0.06839003
000030 4f 45 79 be 55 75 0a be 14 0f 82 bd ed a7 07 be
       -0.24342845 -0.13521321 -0.06350532 -0.13247652
000040 54 d4 af bd 0e c7 50 3e eb d0 47 3c 83 9c 8e be
       -0.0858542 0.20388433 0.012195806 -0.27853784
000050 04 be 85 bc ef 67 5d 3c 43 d0 4f bc 27 c6 ba bb
       -0.016325958 0.013513549 -0.012683931 -0.005699891
000060 67 98 b4 bb 00 a2 29 3b f4 80 1f bd 64 3e bd bc
       -0.005511332 0.0025883913 -0.03894134 -0.02310104
000070 63 e2 3a bd 2e b4 db 3b 28 d9 97 ba 3d 98 18 bd
       -0.045626055 0.0067048287 -0.0011585103 -0.03725456
000080 a0 d2 12 39 98 f1 f0 bc 17 21 6b bb e5 24 de 3b
       0.00014002109 -0.029412076 -0.0035877877 0.0067793005
000090 4b 93 b6 3c 88 3b 09 ba a1 1b d4 bc 38 c5 c1 3c
       0.022287032 -0.0005235006 -0.02589208 0.023653612
0000a0 94 b9 e1 ba 55 b4 31 bd 99 2a e3 b9 9f 7f cf bc
       -0.0017221444 -0.04338487 -0.00043328552 -0.02532941
0000b0 73 f3 ca bc 41 11 05 bd ca 37 3c bd b1 09 c9 3c
       -0.024774289 -0.032487158 -0.045951642 0.024540754
0000c0 21 a6 2d bd b4 13 d7 3c a2 a7 7a bc 31 71 15 bd
       -0.04239476 0.026254512 -0.015298756 -0.0364849
0000d0 72 57 41 bd a4 2b 1d bd 15 a4 9d bc 1d 86 41 3d
       -0.047202535 -0.038371697 -0.01924328 0.04724704
0000e0 c7 00 35 bd fb e6 a5 bb e8 ce f0 3c 54 6d ae bd
       -0.044190194 -0.0050629354 0.029395536 -0.085169464
0000f0 14 45 8d 3c 24 f6 96 bc d9 58 9b bc 63 d7 34 bc
       0.017244853 -0.018427916 -0.018963264 -0.01103768
000100 29 5f 55 3b dc 2c e0 bc 3b b9 74 bb 11 36 d4 bc
       0.003255794 -0.02736514 -0.0037341851 -0.025904687
000110 ac ff c4 bc ef a9 9a bc d0 ac 78 3b d9 fa 5f 3b
       -0.024047695 -0.018879859 0.00379448 0.0034176616
000120 e3 5d ec ba e1 42 7e 3b ad b3 7a bc 87 a7 b8 3a
       -0.0018033352 0.0038797187 -0.015301627 0.0014088013
000130 07 53 37 bd b0 b8 04 bb 78 35 25 bc c5 49 ff bc
       -0.044756915 -0.0020251684 -0.010083549 -0.031163106
000140 e3 8b ed bc c2 d3 ff bc de 33 72 bc d7 3a 9c bc
       -0.028997367 -0.031228904 -0.014782874 -0.019071026
000150 04 97 a2 bc c6 02 00 bd 05 73 d5 bc 77 fc 48 bc
       -0.0198474 -0.031252645 -0.026055822 -0.012267224
000160 ac 06 cd 3c 38 96 7a bb 61 80 ed bc 8f 66 90 3b
       0.025027595 -0.003823651 -0.02899188 0.004406757
000170 ae 74 01 bd cf ec 10 3c ac 94 13 bc 42 f2 c8 bc
       -0.031605415 0.008845522 -0.009007614 -0.02452958
000180 fd 53 f9 bb 7c 98 6a bc 8e 07 c3 bc 1c b5 9b bc
       -0.007608889 -0.014318582 -0.023807313 -0.019007258
000190 6b f4 00 bc e8 16 85 3c dc 7c 1a bd 9a 9e b8 3b
       -0.007870774 0.016246274 -0.03771673 0.005634141
0001a0 a7 e2 82 3c fd fd 13 bc 9d a5 9a bc a9 dd 03 bb
       0.015977217 -0.0090327235 -0.018877799 -0.0020121133
0001b0 6d bc e1 3c 87 41 7e bc 43 30 32 3c 06 9e 63 bc
       0.027555669 -0.015518553 0.010875764 -0.013892656
0001c0 81 61 7b bc cb c2 a9 3c 90 ae 37 bc 53 9a a1 bb
       -0.015343071 0.020722767 -0.011211053 -0.004931727
0001d0 4e 78 0c bd c0 c3 69 bc d2 a1 bb 3c b8 2c ea 3b
       -0.03429442 -0.014267862 0.02290431 0.007146444
0001e0 c8 fc 8e 3b 68 09 ee bd e3 b0 88 3b 0e 00 63 bd
       0.00436363 -0.11622888 0.004171477 -0.055419974
0001f0 aa b5 ac bc 73 fd ce 3b 69 d6 9e bc f9 ac 8b 3c
       -0.021082718 0.0063168346 -0.019389348 0.017050253
000200 1d f6 4f bd 34 bc 59 bd d6 a1 48 bc 66 88 8b bc
       -0.05077182 -0.053158 -0.012245616 -0.017032813
000210 66 0d 3f bc e4 bb e6 3c a7 8f 75 bd 7e 9c 76 3c
       -0.011660909 0.028165765 -0.05995145 0.015051959
000220 e9 02 04 3c 6f 11 18 bd 12 2c 3c 3d 8d a3 2c 3c
       0.008057334 -0.037126 0.045940466 0.01053704
000230 65 ad 7b bd ea 65 97 3d d4 09 f3 bc 52 f8 c5 bd
       -0.06144466 0.073924854 -0.029667772 -0.09666504
000240 5a b6 f1 bb 89 04 f1 3a b4 59 55 3b 6f 3b fc 3b
       -0.0073764743 0.0018388192 0.0032554688 0.0076975147
000250 49 1d e6 3b 0c d7 63 bb 63 aa 89 bb 88 53 b5 bb
       0.007022534 -0.003476563 -0.00420122 -0.0055336393
000260 1f 3c 0f bd ce fa fc bc 73 cf 01 bd 07 a4 09 bd
       -0.034969445 -0.030881312 -0.03169198 -0.033603694
000270 be 5f fc bc 01 f3 4c 3c ca 90 94 3c 6f ac 84 bd
       -0.030807372 0.0125091085 0.018135447 -0.064782016
000280 29 91 45 3a 7d 1f bb bc 7c 84 dc bc 38 a7 c8 3b
       0.0007536584 -0.022842163 -0.026918642 0.0061234497
000290 82 ff a7 bc 2d 23 c1 bc c1 5f be bb 3f b2 a7 3c
       -0.020507578 -0.023576343 -0.0058097546 0.020470737
0002a0 1a 4c 8e bc 7a e7 ee ba 71 54 d1 bc 4b bb 17 3c
       -0.017370272 -0.0018226944 -0.02555296 0.009260963
0002b0 5a b4 8b 3c 49 f5 d6 3c 2d fc 0f bd f2 08 02 bd
       0.017053772 0.026240008 -0.035152603 -0.031746812
0002c0 e8 54 db bc a3 b3 f2 bc dc a4 0c 3b 1e bd a8 bc
       -0.026773885 -0.029626673 0.0021460569 -0.02059799
0002d0 c9 c3 92 3d 9e ff a3 3f 97 34 6b be 63 38 fc be
       0.07166249 1.2812383 -0.2296928 -0.4926177
0002e0 ca e9 d6 3e 84 84 c2 be af 3c 7b be 8a 4a ae 3d
       0.41975242 -0.37991726 -0.24534868 0.08510311
0002f0 45 36 43 3e 17 0a 81 bf fa 1b 4c bf 09 a1 15 bc
       0.19063671 -1.0081204 -0.7973019 -0.009132632
000300 06 95 8d be 8b df b5 be 96 80 8b 3d 2d 99 43 be
       -0.27652758 -0.35522112 0.06811635 -0.191014
000310 59 61 34 bd 10 13 0d bf 16 10 cb 3c d7 b2 e7 be
       -0.04403815 -0.5510721 0.024787944 -0.4525363
000320 28 11 07 bd d5 16 11 bd e4 6e 45 bb 3a 9d 32 bd
       -0.032975346 -0.035422165 -0.003012591 -0.043606974
000330 06 17 9a 3c 77 1d ea bc c3 1a 1b 3c bf 20 49 bc
       0.018809807 -0.028578503 0.00946683 -0.012275874
000340 09 64 91 bc bf f7 12 3c 22 76 93 bc 79 a6 1b 3c
       -0.017747896 0.0089702 -0.018000666 0.009500139
000350 3a 41 8f 3b 2f fd 4d bc 3e 92 2b 3c e4 9d 1a bc
       0.0043717893 -0.012572571 0.010471879 -0.009437058
000360 cb 63 d5 3a 36 83 3e bc a3 49 64 3c f9 25 a5 bb
       0.0016280351 -0.011627963 0.013933572 -0.005039927
000370 31 ef a5 be 74 8b f8 3e 35 53 9a 3d 0b 46 1d bf
       -0.3240905 0.48543894 0.07535402 -0.61435
000380 5b fc c9 3c 83 ec 4b be da e4 8b be 53 e6 04 bf
       0.024656465 -0.19914441 -0.27323037 -0.51913947
000390 89 f4 9a bd f6 06 a3 be 39 83 a3 3e 4f ee 87 3c
       -0.07566173 -0.31841248 0.31936052 0.016593127
0003a0 8e 31 73 be f5 25 6f be 23 0b dc 3d 71 20 fc be
       -0.23749372 -0.23354323 0.10744312 -0.492435
0003b0 47 29 78 bd ea 99 66 be 4c 85 e7 3e af 7d 04 3e
       -0.06058624 -0.22519651 0.45218885 0.1293857
0003c0 ba 6a d5 bc cc 4b db bc 62 b7 59 38 a6 a3 de bc
       -0.026051868 -0.026769541 5.190762e-05 -0.027177643
0003d0 bc 54 cf 3c 33 92 82 bc ed 69 15 bc 58 7e 35 3c
       0.02530896 -0.015938854 -0.009119493 0.011077486
0003e0 b2 bd e5 bb a4 85 06 3c ee 86 ec bc b3 4e dd bc
       -0.007011139 0.008210573 -0.028872933 -0.027015066
0003f0 1c 2b 18 bb 3c 3f aa bc 63 45 11 bc 3d 37 0f 3d
       -0.0023219055 -0.020782106 -0.008866641 0.03496479

fc1.bias f4 [128]
000000 ef 6e 71 be 21 d5 6a bc 08 ac e8 bc f5 98 8d bc
       -0.23577474 -0.01433304 -0.028402343 -0.01728485
000010 c7 1c e2 bb bf bd 9c bc 69 4e 36 bd 79 e5 ed bc
       -0.006900403 -0.019133447 -0.04450837 -0.029040085
000020 a7 ca f8 bb 58 cd 94 bd 5e ff aa bc a4 0b 5e bd
       -0.0075925174 -0.07265729 -0.020873722 -0.05421032
000030 b4 35 b0 bc 77 93 b9 bb 34 da 9a bd 51 82 30 bd
       -0.021509983 -0.005663331 -0.0756115 -0.04309303
000040 f5 8e 60 bd 70 ad 83 bd c3 4a 3c 3e 82 8b 1d 3e
       -0.054823834 -0.06429565 0.18387894 0.1538525
000050 c6 ac 79 3c e6 35 6c 3d 5c 1e 64 bd 9e ba 07 bc
       0.015238946 0.05766859 -0.055693015 -0.008284239
000060 58 97 5f bc 24 31 88 bd 42 ef 83 ba 9f 7c ab bc
       -0.013646923 -0.06649998 -0.0010065811 -0.020933447
000070 54 8a c0 bb 14 8e d6 bd 66 9c 79 bc 53 a9 af be
       -0.005875865 -0.10476318 -0.015235042 -0.34308872
000080 e0 46 e0 bb 64 3f 6d 3e e6 68 1c bc 57 8d 51 be
       -0.0068443865 0.23168713 -0.009546494 -0.20464073
000090 11 c1 62 bc e5 58 80 3d db 32 4f 3e 47 91 32 3d
       -0.013839976 0.06266955 0.20234244 0.04359558
0000a0 70 1a 8e bd 5f 96 b9 bd 55 b2 6e bc ba 7c e1 bb
       -0.06938636 -0.09061884 -0.014568885 -0.0068813236
0000b0 0a 51 fb bb 97 7d 1f be 98 c6 90 bc 82 40 9b bc
       -0.0076695727 -0.15575252 -0.017672822 -0.018951658
0000c0 07 ad 84 3d 69 58 18 bd 50 cb cf bd ab 31 f4 bc
       0.06478315 -0.03719369 -0.10146201 -0.02980884
0000d0 5d e1 5a be 13 b2 d9 bc 5a 48 3c bc 78 7d 8e bd
       -0.21375032 -0.02657417 -0.011491859 -0.06957525
0000e0 0e fa 22 bd 77 ea 29 3d 52 6f 6e bc 65 a2 e9 bc
       -0.039789252 0.04148337 -0.014552908 -0.028519819
0000f0 98 82 ff bc 51 13 bd bb 4c 62 4f 3d 75 d9 8a 3d
       -0.031190202 -0.005770125 0.050630853 0.06779758
000100 82 17 96 bb 96 a0 92 bc 8a 34 7f bb c9 ee 9f 3d
       -0.004580439 -0.017898839 -0.0038941228 0.078092165
000110 27 51 04 bd d2 5f da bc 9f 33 39 bc 7b 8e 24 be
       -0.032303955 -0.026657019 -0.011303811 -0.16069977
000120 77 29 20 bc 32 94 07 bc 78 e8 92 3b c3 fe 17 bc
       -0.009775511 -0.008275079 0.004483279 -0.0092770485
000130 06 04 88 3d 79 02 46 3e 16 b9 41 bd 79 6a a4 bd
       0.066413924 0.1933688 -0.047295652 -0.080281205
000140 c6 f4 0b be 9b 8b d0 bc 7e b5 18 3d 23 7b 89 bd
       -0.13667592 -0.025457194 0.03728246 -0.067129396
000150 62 47 5f 3d a9 11 8a 3d 96 e7 a0 bc 3f a5 a2 be
       0.054511435 0.0674165 -0.019641679 -0.31766698
000160 f4 12 0e bd 28 c3 80 bd c8 89 90 bd 96 15 0a bd
       -0.034686044 -0.06287223 -0.0705753 -0.033711992
000170 87 5e 90 bd c1 59 5c be 27 ff 6d be b6 d8 81 be
       -0.0704928 -0.21518613 -0.23241864 -0.2536065
000180 8f 5b 29 be 3a 47 cd 3d 35 d1 60 bc d6 1b 49 3e
       -0.16538833 0.10023351 -0.013721754 0.19639525
000190 58 40 a0 bd 0c 0e 6c bc 4f 47 61 bc e9 4e 04 bc
       -0.078247726 -0.014407646 -0.013749911 -0.008075454
0001a0 76 be 10 be 4d 23 9b bc 7b c5 82 be 4d d2 70 bc
       -0.14135155 -0.018937731 -0.2554129 -0.014698577
0001b0 6d 4f 23 be 1f a4 28 be 3f c9 82 bc 2e 9d 7f bc
       -0.15948267 -0.16468857 -0.015965102 -0.015601439
0001c0 86 df 80 bc 64 b7 40 bd cc f4 50 be ea 8d 6e bc
       -0.015731584 -0.047049895 -0.20405883 -0.014560202
0001d0 23 94 70 bc ef 5a 6d bb e1 6e b4 bc 27 14 de bc
       -0.014683756 -0.003621753 -0.022025527 -0.027109219
0001e0 b2 cc 00 bd ba 2e a3 bc 91 a1 02 be fe 7c fe bc
       -0.031445213 -0.019919742 -0.12756945 -0.03106546
0001f0 73 0d 41 be c8 a0 c1 bc e1 9c 5f bc df 1d 90 bd
       -0.18852787 -0.023636237 -0.013648243 -0.070369475

fc2.weight f4 [64, 128]
000000 b4 cd de bb 44 b8 7a 3c 2e 96 b2 bc 1d 6a c4 ba
       -0.006799424 0.015302721 -0.021800127 -0.0014985238
000010 66 44 e7 bc 34 39 6a ba 12 fd 1e bd 15 21 25 bd
       -0.028230857 -0.00089349155 -0.038815565 -0.040314753
000020 48 83 90 bc af 40 d2 3b 04 7b 94 3c 5a 0f 89 bb
       -0.017640725 0.0064164023 0.018125065 -0.0041827383
000030 4b e0 40 bb 2e 20 9b 3c 22 62 f7 bc 97 aa 99 bc
       -0.0029430564 0.018936243 -0.03019816 -0.018758101
000040 71 d3 db bc 8b 2d 9c bc f1 84 a3 3a 6a d0 24 3b
       -0.026834222 -0.019064685 0.0012475533 0.0025148639
000050 00 02 7c bc 87 25 e9 bc 0b 36 9a bb ad 44 6b 3c
       -0.015381336 -0.028460277 -0.0047061495 0.014359635
000060 47 1b e5 bb ec 28 36 bc a6 93 7a bc 32 44 d2 3b
       -0.006991777 -0.011118155 -0.015293991 0.006416821
000070 9e 97 fc bc bc de a5 bc d8 57 43 bc 1f 8c 1d bc
       -0.030834015 -0.02024781 -0.011922799 -0.009615927
000080 e2 b5 b5 3c 7b 90 54 3c ff 95 1c bc 1f 23 e0 bb
       0.022181455 0.0129739 -0.009557246 -0.0068401243
000090 49 88 03 bd 5d 1b dc bc d1 de 9e 3c 97 52 91 3b
       -0.032112394 -0.026868517 0.019393357 0.0044348943
0000a0 d2 40 0f bd 89 9c 3a bd f9 be bc bb 49 3d 8b bc
       -0.034973927 -0.04555944 -0.0057600704 -0.016996996
0000b0 b9 c8 71 bc 32 ac 8f 3b d9 b6 88 3c ca 26 c1 3c
       -0.014757329 0.004384541 0.016688751 0.023578066
0000c0 1a 94 e5 bc 01 b1 57 3b bb 75 ce bc f1 25 f7 3b
       -0.028024722 0.00329119 -0.025202623 0.0075423648
0000d0 d6 95 18 3c 8f 03 b5 3b 26 52 a3 3c 97 54 de bc
       0.009313067 0.005524106 0.019936632 -0.027139945
0000e0 06 4c 9f bb 7b f1 cb 3c 53 6c 19 bc 91 fb b7 bb
       -0.0048613576 0.02489542 -0.009364205 -0.005614706
0000f0 32 e9 cd bc 83 98 7c 3c 37 33 b0 bb 2d ef 60 39
       -0.02513561 0.015417221 -0.005377199 0.00021451405
000100 b6 5b 52 3c 44 d8 0b 3b 0b a1 cc bb f9 58 22 bd
       0.012839248 0.002133862 -0.0062447838 -0.039635632
000110 bb 7a e2 bc da bf 0b 3c 7e 0b 98 bc 96 52 91 3c
       -0.027646413 0.008529628 -0.018560167 0.017739575
000120 9b fd f0 bb 23 a0 e4 3c be b2 98 bb 28 64 92 bc
       -0.007354451 0.02790839 -0.0046599796 -0.017870024
000130 48 a2 9e bc 1b 2d 04 bd b3 d0 08 bd 93 2b ca bb
       -0.019364491 -0.03226958 -0.033402156 -0.0061697452
000140 eb 40 9b bc aa 67 e7 3c d6 e9 59 3b 21 f7 ce bc
       -0.018951854 0.028247673 0.003325095 -0.025264325
000150 db 1f 0e bb ab 0b f2 bc 1a 43 52 3c 22 1e 27 3c
       -0.0021686468 -0.02954658 0.012833381 0.010200055
000160 0d 60 b4 bc 31 aa a7 bc e6 38 80 bb 54 6a 42 3a
       -0.022018457 -0.020466896 -0.003913033 0.0007416357
000170 95 2d 96 3c be b9 fc bc 0e 89 a7 3c 69 b6 05 bd
       0.018332282 -0.030850288 0.020451095 -0.032644663
000180 59 49 cc bc ea 4e 4c 3c b6 bc 30 3c cb 30 2d 3b
       -0.024937319 0.012469986 0.01078718 0.0026426788
000190 2a 62 df bb db 95 2e bc e8 08 8b 3c 50 75 28 bc
       -0.006817122 -0.0106558455 0.01697202 -0.010281876
0001a0 e1 a5 1a 3c 6f 13 7a 3b f7 85 21 bc a9 df 06 bc
       0.009438963 0.0038158556 -0.0098586 -0.008232036
0001b0 0c ab 8e bc 9b 4c 99 bb e8 3c 84 bb ff ac 04 bd
       -0.017415546 -0.0046783215 -0.004035581 -0.032391544
0001c0 77 78 a1 3c b9 be f0 3b 74 bf 98 bc dd 14 d8 bb
       0.019710762 0.0073469547 -0.01864598 -0.006594284
0001d0 80 07 8d 3c cf 3d 0d bc f1 ad 94 3b 9f 4e 00 bd
       0.01721549 -0.008620693 0.004537337 -0.03132498
0001e0 ca 94 9b bc 1c e8 98 bc dc 6f ec bc e0 1b 92 bc
       -0.018991847 -0.018665366 -0.028861932 -0.017835557
0001f0 61 64 84 bc 94 51 b4 3c db 34 98 3c b6 c2 83 3c
       -0.016161146 0.022011556 0.018579891 0.016084056
000200 6d 6f a1 be f7 49 93 ba 11 80 a3 bb ac 95 ee 3b
       -0.31530324 -0.0011237253 -0.004989632 0.007281026
000210 6f fa ab 3a 00 c9 12 3c ac 80 07 bc 40 5a 45 bd
       0.00131209 0.008959055 -0.008270424 -0.048181772
000220 dc 57 95 bc 3d bd 2d be c8 64 1a 3c ac 1f 1a be
       -0.018230371 -0.1696672 0.009423442 -0.15051144
000230 1a 04 2f bc 14 f1 bd 3c 56 b8 05 be 35 73 d3 bc
       -0.01068213 0.023186244 -0.130586 -0.02581177
000240 e6 97 1c 3d f4 5e 92 be 14 29 53 be 29 2b 25 3f
       0.0382308 -0.28588068 -0.20621139 0.6451898
000250 53 59 6f be 13 b7 10 bf 3e 6a 96 bf 02 1e c4 bc
       -0.23373918 -0.5652935 -1.1751173 -0.02394009
000260 93 2c 63 bc cb 8e 55 bf f2 c8 17 be e5 17 89 3b
       -0.013865608 -0.8342101 -0.14822748 0.0041837567
000270 aa 0a a7 bc 23 a9 63 3e 0e cc 3c 3b 3f e4 df be
       -0.020390827 0.2223249 0.002880815 -0.43728825
000280 04 a2 99 3c d7 d0 8d bf a6 13 61 bc a9 0e 81 3e
       0.018754013 -1.1079358 -0.013737595 0.25206497
000290 a3 31 fd 3c 08 95 4d 3f c5 a2 a2 bf 62 0b 68 bc
       0.030907458 0.8030553 -1.2705923 -0.01416287
0002a0 71 91 79 3d 38 ea 44 3c 67 a5 39 bc e5 db e9 3c
       0.06092972 0.012018733 -0.011330939 0.028547237
0002b0 6e 2a 00 bd c9 fb 0e bf 43 6d 2f bc 38 67 ac bb
       -0.031290464 -0.55852944 -0.010707202 -0.005261328
0002c0 4e 49 e3 3e ae 64 9a bc e2 ec f0 be 21 bf 31 be
       0.44391865 -0.018846836 -0.47055727 -0.17358066
0002d0 5c ec 27 3e f7 c0 e5 bc 14 2b 18 3c 58 44 fc bd
       0.16398758 -0.028046114 0.009287614 -0.12317723
0002e0 7c ab c2 bc 91 61 43 bf 7b d7 9b 3c b3 e2 3a 3c
       -0.02376341 -0.7632075 0.019023648 0.011406588
0002f0 3c 20 af bc 37 9e fc bc 7c 6d bc be 81 5b 93 3d
       -0.021377675 -0.030837161 -0.3680228 0.07195187
000300 84 63 68 3c a7 7b 8a 3c e1 e9 80 3c 2d c6 6f bf
       0.014183883 0.016904665 0.015736522 -0.9366177
000310 fc d6 7c 3c 0d f5 98 3c 92 8e 06 3d 41 b1 10 3f
       0.015432116 0.018671537 0.03285081 0.5652047
000320 4a 06 e1 3c f5 4a d7 3b 7d 89 f3 3e 96 99 a9 3c
       0.02746882 0.006570215 0.47565833 0.020703118
000330 2c b0 80 3e b0 62 07 3f 75 b2 ed bc bf f1 0d c0
       0.25134408 0.5288496 -0.029015759 -2.21788
000340 4b ca 95 be 48 03 42 ba e8 f7 78 be ad 77 c6 3c
       -0.292559 -0.00074010016 -0.24313319 0.024226988
000350 45 cf b9 3e 51 d5 b7 be 0f 7b ae bc c6 70 9b 3c
       0.36290947 -0.35904935 -0.021298913 0.018974673
000360 e2 8f 2b bc fa 1c 84 be f2 60 1d bf 02 38 d2 3b
       -0.010471316 -0.25803357 -0.6147605 0.006415368
000370 a1 aa 68 bf ea 14 12 bd 5f e4 03 3f d4 79 29 3e
       -0.9088536 -0.035664476 0.5152034 0.1655038
000380 30 98 f9 be a1 b9 35 bd a0 92 1d bd b4 d6 b1 3c
       -0.48748922 -0.044366483 -0.03846991 0.021708824
000390 fa 75 42 3d 88 f4 f3 bc ed 2a 52 3b 36 91 84 bb
       0.047475792 -0.029779688 0.0032069043 -0.004045631
0003a0 51 1e 39 3e 0f c7 7c 3b d0 a7 0e 3f 91 20 92 bc
       0.18077971 0.0038570797 0.5572481 -0.017837794
0003b0 a2 f1 8d be ce 36 d6 bd 0e 66 d7 bb 74 98 9e 3b
       -0.27723414 -0.10459672 -0.006573445 0.004839951
0003c0 c0 9d b0 3b 63 13 06 bc 18 f8 a3 be 5b 0e 14 3c
       0.005389899 -0.008183333 -0.32025218 0.009036626
0003d0 36 f7 a9 bb f2 94 e6 3b 0d 17 20 bc 85 18 9c bd
       -0.0051869405 0.0070367986 -0.009771121 -0.07621864
0003e0 c9 4c 2b bd 90 d6 12 3a 27 0c 60 bf 9c 14 f4 bc
       -0.041821275 0.00056014303 -0.87518543 -0.029794984
0003f0 13 1e be 3e a4 46 1e 3c 50 19 9a bb e6 8c 5c 3e
       0.3713232 0.009660397 -0.0047027245 0.21538123

fc2.bias f4 [64]
000000 9e 3f 2e bd b8 e3 cb bd 5e 82 46 bd b9 3e 8a bd
       -0.04254114 -0.09955543 -0.04846417 -0.06750245
000010 11 9b ea 3c 91 b8 7d be 90 fb ab bc 83 57 2a be
       0.028638395 -0.24777438 -0.020993978 -0.16634946
000020 c7 95 22 bd 28 98 ac 3d 33 65 db bc 6c 49 96 3d
       -0.03969362 0.08427459 -0.026781654 0.07338223
000030 33 a7 7e 3e 64 ec 13 bd 4d 3f 44 bd 8a cb 58 bd
       0.24868469 -0.03611411 -0.04791193 -0.052928485
000040 1d e8 e0 bd 22 ce 28 3e e4 ff fb bc f2 fa 96 3b
       -0.10981772 0.16484883 -0.030761667 0.0046075517
000050 7c 3b 4c be 01 7b 7d bd 08 06 a7 bd cb 62 bb bd
       -0.19944566 -0.061884884 -0.08155447 -0.09149703
000060 34 e9 02 bd 07 6e a5 be cd 1f fd bc f4 30 09 be
       -0.03196068 -0.32310507 -0.030898953 -0.1339758
000070 59 d3 d4 bc c0 41 0d be 05 3d ef bc 00 7e f8 3c
       -0.025979685 -0.13794613 -0.029203901 0.030333519
000080 e2 60 ea be 8d 8d 5c 3b 98 31 41 bd e1 aa 1c bd
       -0.4577704 0.0033653707 -0.047166437 -0.0382489
000090 23 11 d6 bc 9f 7b 3c be 77 90 2f bd 71 f0 38 bd
       -0.026131218 -0.18406533 -0.04286238 -0.045151178
0000a0 66 46 1e 3e d5 f1 0b 3e 28 1f 91 bc 13 d6 5a 3e
       0.15456542 0.1366647 -0.017715052 0.21370725
0000b0 7a c8 3d bd 00 8b b8 bd 76 c7 34 bd da 68 29 3e
       -0.046333767 -0.09010887 -0.044135533 0.16543904
0000c0 b7 2a 9b 3d 98 3f 20 be 10 48 e7 3d 72 9e c6 bc
       0.075765066 -0.15649259 0.11293042 -0.024245474
0000d0 de c9 05 3e c6 1c 53 be cc ea 44 bd 0d ce 55 3e
       0.13065287 -0.20616445 -0.048075482 0.20879383
0000e0 9d f3 9a bc 0f 4f b6 bd 0b 49 09 bd 77 94 31 bd
       -0.018914992 -0.08901798 -0.033516925 -0.043354478
0000f0 3e f6 96 bd 8f b6 5c 3e c0 73 75 be fc 4e 30 bd
       -0.07371186 0.21554016 -0.23969936 -0.043044075

fc3.weight f4 [32, 64]
000000 f4 ca 8a 3c 2e e5 d1 bd a9 97 6a 3c 7e 54 11 be
       0.016942479 -0.10248791 0.014318385 -0.14192387
000010 cc a7 ab bd 0e b6 61 be db fd 02 bc 63 a9 b1 bd
       -0.08381614 -0.22042105 -0.007995094 -0.08674886
000020 08 f1 ff bc 69 be 2e 3c a2 21 6d 38 7d c0 c3 bd
       -0.031242862 0.0106655145 5.6536526e-05 -0.095581986
000030 10 8f b1 3c 02 50 c4 bc 6d c8 a8 3c 26 1c 33 bd
       0.021674663 -0.023963932 0.020603383 -0.043728016
000040 f9 a5 da bd e3 d3 ca bd 4a a4 d5 bb 9a 41 6b 3e
       -0.10676188 -0.099036954 -0.006519829 0.22974244
000050 8e c5 3b 3e be 83 17 3d 6e f3 eb 3c 28 d8 61 39
       0.1833708 0.036990874 0.0288026 0.00021538197
000060 3c 07 3a bd 18 ca 28 3e 3d 45 10 bd d3 83 a8 bd
       -0.045417055 0.16483343 -0.03522228 -0.082282685
000070 d3 33 e1 bc 37 96 02 bd e6 ed 2c 3c a3 2c 0d 3e
       -0.027490532 -0.031881537 0.010554766 0.13786559
000080 b2 45 4f 3e 94 33 38 3e 46 b9 d0 3c 07 b5 9b bb
       0.2024143 0.17988425 0.02547897 -0.0047518048
000090 5d 68 ab 3b 9a 4d 00 be 11 e5 05 3d fe 18 06 be
       0.005230947 -0.12529603 0.032689158 -0.13095471
0000a0 39 6b f6 3d ef 0f 1b be a6 d6 ae bc 37 6b c4 3d
       0.1203217 -0.15142797 -0.021342587 0.09590762
0000b0 b8 2a e2 3c e0 fb 9f bd a9 ac 83 3c 10 aa 80 bd
       0.02760826 -0.07811713 0.016073542 -0.06282437
0000c0 00 73 9a bd 3c d5 8f be 1b 1f 22 be 81 e1 e5 3c
       -0.07541466 -0.28092372 -0.15832178 0.02806163
0000d0 a7 55 7e 3e ea fb 6f 3e 93 d7 ae bb 21 85 01 bc
       0.24837361 0.23435941 -0.005335757 -0.007905276
0000e0 3b a8 9f 3c 7d 8b 96 3d cc dc 2d bd fb 67 67 3e
       0.019489398 0.07350824 -0.042446896 0.22598259
0000f0 b1 b7 41 bd 50 bb 8b 3d 9e 92 89 be f1 00 86 bc
       -0.047294322 0.068228364 -0.26869673 -0.01635787
000100 50 d2 cf 3c ed 8e 9a 3c a0 d0 a0 bc 18 2e 01 bd
       0.02536884 0.01886698 -0.01963073 -0.0315381
000110 03 60 2d bc 01 74 ab bb 4e 0a 02 3c f7 54 08 3d
       -0.010581973 -0.0052323346 0.007937027 0.033284154
000120 04 60 54 3c 05 62 6a 3d c6 e1 90 bc 92 46 b9 3c
       0.012962345 0.057222385 -0.017685782 0.022616658
000130 fa 08 3b bc 90 8d 6f 3c 81 a1 30 bc 17 fc a3 bc
       -0.011415714 0.0146211535 -0.010780693 -0.020017667
000140 bf a4 66 bd a0 9d 29 bc a7 2a 98 3c dd 7d 10 bc
       -0.056309458 -0.010352522 0.018575026 -0.008819071
000150 de c4 c8 bb fe a0 bf 3c e8 d2 be bc dd 45 77 bc
       -0.006126984 0.023392197 -0.023293927 -0.01509234
000160 30 ff fc 3b a3 95 74 bb be 9e 43 ba 77 68 5c bc
       0.0077208504 -0.0037320636 -0.0007462314 -0.013452641
000170 36 bb 4c 3d c4 5b a1 bb d5 d5 cb bb 8a a6 8e bc
       0.049983226 -0.0049242694 -0.006220559 -0.017413396
000180 d0 1b d7 bc e1 1f 36 bb d5 8e 8c 3b a3 84 0d bd
       -0.02625838 -0.0027789997 0.004289488 -0.03455032
000190 d2 88 ca bb c9 a1 63 bc 0f 74 c1 bb 47 cc b9 bc
       -0.006180861 -0.013893553 -0.005903728 -0.022680415
0001a0 33 91 68 bb 9d 46 ad 3a d1 a7 e6 bc b0 6b 80 3c
       -0.0035486936 0.0013219897 -0.028156193 0.01567635
0001b0 5a 1e 97 3c c1 d7 a4 bc e7 21 a8 bb f0 6b 24 bb
       0.01844709 -0.02012241 -0.0051309946 -0.002508875
0001c0 03 cf 2c 3c e9 c8 f3 bc 3a 94 52 bc 16 83 b3 bc
       0.010547402 -0.029758887 -0.012852723 -0.021913093
0001d0 84 7d ef bc fa d8 88 3c 12 b0 08 bc ec a1 82 bc
       -0.029234655 0.016705025 -0.00834276 -0.015946351
0001e0 5c bb d7 3c 31 26 ff 3b c1 bb 5f bb 52 8d 0a 3e
       0.026334457 0.007786535 -0.003413901 0.13530472
0001f0 6b 8c 21 3d a0 03 f5 3d 09 38 89 3c ea 19 bb 3c
       0.039440554 0.11963582 0.016750352 0.022839505
000200 9e c3 33 bc f7 15 e9 be 92 a3 51 3d 0d 54 5d 3f
       -0.010971932 -0.4552457 0.051181383 0.86456376
000210 ef 53 ab 3e 20 af 7c be 66 ff df 3c cd 4a 03 be
       0.33462474 -0.2467618 0.027343463 -0.12821503
000220 07 14 2d 3d ca 09 89 be a0 4a c3 3c e1 cd ad be
       0.042255428 -0.2676528 0.023839295 -0.33946136
000230 0f 5b 42 3e 06 fd 53 bc 95 4b 21 3d 0b 06 7a bc
       0.18980049 -0.012938743 0.03937872 -0.01526023
000240 02 45 b3 3d 87 fe f1 be dd 45 86 3c e7 2c ae 3e
       0.087533966 -0.472645 0.016390735 0.34018633
000250 4d 04 50 3e 7d 8d c1 bb ea 18 a7 bd 42 ed 9d bd
       0.2031414 -0.0059067593 -0.08159049 -0.07711269
000260 92 d7 cb 3b e6 1b 19 3f 2d 86 dc 3c db 85 00 3f
       0.0062207663 0.59808195 0.026919449 0.5020425
000270 8e 41 1f bd 38 ea 13 bc 5f 9f a1 bb c0 74 b9 3e
       -0.038880877 -0.00902801 -0.0049323286 0.36221886
000280 d4 77 21 bf 58 59 98 bd fc 79 2b bc 0b d8 1e 3d
       -0.6307347 -0.07438916 -0.010466095 0.038780253
000290 02 3d 06 bb 0e e7 a1 3d f3 9d cf 3b fd 9b 34 be
       -0.002048314 0.07905398 0.0063359677 -0.1763763
0002a0 59 52 10 3e 42 54 d6 be a7 e3 4c bc fd 9d d2 bd
       0.14093913 -0.4186116 -0.012505448 -0.1028404
0002b0 61 c3 75 3c 59 b1 09 3d c6 5b 0e bd cc cc fd 3d
       0.015000195 0.033616398 -0.03475549 0.123925775
0002c0 9b 20 0e bf 82 45 6a bd c2 8d bb be 69 59 9b 39
       -0.555185 -0.057195194 -0.3663159 0.0002963052
0002d0 6d b2 f5 bd 55 c0 ce be d5 89 3e 3d 8e 68 47 3e
       -0.11996923 -0.40381113 0.046518166 0.19473478
0002e0 0c 4e 2c bd b8 77 0d 3e bd 5a f4 3b b1 7f f6 3e
       -0.04206662 0.138152 0.007457106 0.48144296
0002f0 ee 62 00 3d 81 20 fc bc 84 fe cd bc 02 76 07 3d
       0.031344347 -0.030777218 -0.025145777 0.033071525
000300 b1 96 f0 bc 26 61 44 3d aa a4 8e 3b 6f f1 c6 3e
       -0.02936873 0.04794421 0.0043531256 0.38856074
000310 4b 5c 85 3d 31 5f 6d 3c 98 8c 01 3c ac f2 c0 3c
       0.06511744 0.014488027 0.007907055 0.023553215
000320 22 77 6f bd 7f fe f0 bd 97 69 7a bc 76 d9 29 bd
       -0.058463223 -0.11767291 -0.015283964 -0.041467153
000330 34 4c aa bd 3d c1 a8 bc c9 8b c4 bc 5a 19 2e bb
       -0.08315316 -0.020599956 -0.023992436 -0.0026565404
000340 c0 f1 65 3d 97 d0 af bc 10 06 2f bb 8b ab 60 3d
       0.056138754 -0.021461768 -0.0026706494 0.054851096
000350 53 30 68 be 7a 32 a7 bc a6 c2 54 bd 43 ca 55 bc
       -0.22674684 -0.020409811 -0.051943444 -0.013048711
000360 82 e1 f1 bb da 84 c8 3c 52 77 a8 3c ab 08 80 3d
       -0.007381619 0.024477411 0.020564709 0.06251653
000370 de 96 01 3c 94 7f 72 3d 21 54 04 3d c0 a3 47 bb
       0.007909505 0.0592037 0.032306794 -0.0030462593
000380 04 28 0e be 9e 3c 6a bd 67 d5 c4 bb 78 ff 90 bc
       -0.13882452 -0.057186715 -0.006006885 -0.017699942
000390 95 c7 2e 3c b5 de 37 3d 3e c2 cc 3c cc 9d d5 bc
       0.010667701 0.044890124 0.024994966 -0.02607622
0003a0 34 15 0b bd 36 2b f8 3c ec 67 3b 3c bb d7 dd 3c
       -0.033955768 0.030294042 0.011438351 0.027080407
0003b0 14 12 6f 3a 0d 88 75 bd 6a a9 08 3c e6 9e 79 3c
       0.00091198203 -0.0599442 0.008341173 0.015235638
0003c0 29 b9 7a 3b 08 0b 47 be 4d 85 37 bd b8 20 7b bc
       0.0038257337 -0.19437802 -0.04480486 -0.015327625
0003d0 f1 8d b1 bd 4a 66 96 bc 5c 9c 72 3c d8 58 9c 3d
       -0.08669651 -0.018359322 0.014807787 0.07634133
0003e0 43 a1 90 3c 13 e2 f6 bb b6 de e2 3c a8 c6 8f bd
       0.01765502 -0.0075342744 0.027694087 -0.070203125
0003f0 7e 10 18 bc 20 c0 8e bd c6 f5 40 3e d5 63 f7 3b
       -0.009281276 -0.06970239 0.18843755 0.0075497427

fc3.bias f4 [32]
000000 dc 7c 87 3e b3 e6 8f 3c 0c 90 ad 3e 48 7c f0 3d
       0.26462448 0.01756606 0.33898962 0.11742455
000010 b4 0d 21 3f 0d dd fc 3b 30 f5 f8 3d 0c 0d 40 ba
       0.62911534 0.007716781 0.12156141 -0.0007326163
000020 92 dc c6 3d 39 b4 f9 39 85 57 56 3e b1 dd 41 3c
       0.09710039 0.00047627257 0.20931824 0.0118326405
000030 eb 95 df 3e b1 f5 ec 3d 4f 96 bf 3a f2 25 f0 3e
       0.43669066 0.115702994 0.0014616939 0.4690395
000040 4c f7 05 3f 23 49 18 3c 66 3a 3d 3d be 33 1d 3e
       0.5233047 0.009294781 0.04619827 0.1535177
000050 66 c8 9d 3e ef bf 22 3e 71 86 cd 3d 07 f0 94 3d
       0.30816954 0.1589353 0.10035408 0.07272344
000060 64 2b 83 3d 55 b3 3c 3d 32 88 f9 3c d6 4b ff 3c
       0.064047605 0.04606946 0.03046045 0.031164091
000070 a6 ac db 3e 3b d0 cc 3e 4c ec f8 3d 9b 07 fe 3a
       0.42905158 0.40002617 0.12154445 0.0019380929
